{"layers": [{"batch_input_shape": [null, 1], "class_name": "Dense", "units": 20, "activation": "relu", "weights": [[[… "class_name": "Dense", "units": 20, "activation": "relu", "weights": [[[… "class_name": "Dense", "units": 20, "activation": "relu", "weights": [[[… "class_name": "Dense", "units": 1, "activation": "linear", "weights": [[[… 